backend/Arrrival_model_weights.pth (torch, 269077 bytes, 81 tensors)

cls_token f4 [1, 1, 32]
0	0xc0005e18	-2.005743
1	0x3fff149b	1.9928163
2	0xbeda11d4	-0.42591727
3	0x3f9f735a	1.2457078
4	0xbd444fd1	-0.04792768
5	0xbfb995a7	-1.4498795
6	0x3f3046f6	0.6885828
7	0xbf69f399	-0.91387326
8	0x3f4bcd09	0.79609734
9	0xbe14cc8f	-0.14531158
10	0x3edfef45	0.43737236
11	0xbf59e1e3	-0.851103
12	0xbcfcf048	-0.030876294
13	0x3f16c303	0.58891314
14	0xbfa3ccc6	-1.2796867
15	0x3f4aa4e1	0.79157835
16	0xbfa5ba1b	-1.294742
17	0x3f4fb18c	0.8113029
18	0x3eed8ea2	0.46397883
19	0xbf160f54	-0.5861714
20	0xbf56c8e8	-0.8390031
21	0x3d7c2028	0.061554104
22	0xbd8d02ef	-0.06885325
23	0x3ff85f74	1.940413
24	0x3f7e300c	0.99292064
25	0xc01d0cfd	-2.4539177
26	0xbf0bf4cd	-0.5467041
27	0x3dc515e5	0.09623317
28	0x3fffe606	1.9992073
29	0xbf0b17af	-0.54333013
30	0xbf953aa8	-1.1658525
31	0xbfbad053	-1.4594826

cat_embeds.0.weight f4 [10, 32]
0	0x00000000	0.0
1	0x00000000	0.0
2	0x00000000	0.0
3	0x00000000	0.0
4	0x00000000	0.0
5	0x00000000	0.0
6	0x00000000	0.0
7	0x00000000	0.0
8	0x00000000	0.0
9	0x00000000	0.0
10	0x00000000	0.0
11	0x00000000	0.0
12	0x00000000	0.0
13	0x00000000	0.0
14	0x00000000	0.0
15	0x00000000	0.0
16	0x00000000	0.0
17	0x00000000	0.0
18	0x00000000	0.0
19	0x00000000	0.0
20	0x00000000	0.0
21	0x00000000	0.0
22	0x00000000	0.0
23	0x00000000	0.0
24	0x00000000	0.0
25	0x00000000	0.0
26	0x00000000	0.0
27	0x00000000	0.0
28	0x00000000	0.0
29	0x00000000	0.0
30	0x00000000	0.0
31	0x00000000	0.0
32	0x3d8cf78f	0.068831556
33	0xbebd108e	-0.36926693
34	0xc01e94aa	-2.4778237
35	0xbf059003	-0.5217287
36	0x3f034a32	0.5128509
37	0x3dbf5de6	0.093440816
38	0x3e9f36b8	0.31096435
39	0x3e5a66fb	0.21328346
40	0xbef12477	-0.47098133
41	0xbfb167e2	-1.3859828
42	0xbf43ef38	-0.76536894
43	0x3fd9fde7	1.703061
44	0x3fdf761b	1.7457918
45	0xbf21de40	-0.6322975
46	0x3f59973a	0.8499638
47	0x3f927661	1.1442376
48	0x3fafff0a	1.3749707
49	0x3f9c87b2	1.2228911
50	0xbf276607	-0.65390056
51	0xbeb3d629	-0.3512433
52	0xbf265e38	-0.64987516
53	0xbfc1e5a2	-1.5148203
54	0xbfa2b6fa	-1.271209
55	0x3f080b4e	0.5314225
56	0xbf3248b2	-0.69642174
57	0xbde74a19	-0.1129343
58	0xbf828f6e	-1.0200021
59	0xbf517b5c	-0.81828856
60	0xbed17310	-0.40908098
61	0xbffc1d7c	-1.9696498
62	0x3fff0eb6	1.9926364
63	0x3dcd4c76	0.100243494
64	0xbfb73a40	-1.4314651
65	0xbd5cc19b	-0.053895574
66	0xbedab944	-0.4271947
67	0xbfd2f0da	-1.6479752
68	0xbf25286a	-0.6451479
69	0xbfb351ba	-1.4009316
70	0xbf9e65d3	-1.2374824
71	0x3e9d89be	0.3076915
72	0xbf21f8c1	-0.63270193
73	0xbfa4544f	-1.2838229
74	0x3ea4c543	0.3218175
75	0xbf740c96	-0.95331705
76	0xbfa02527	-1.2511338
77	0xbfc3145b	-1.5240587
78	0x3f7efd7f	0.99605554
79	0xbfde0d27	-1.7347764
80	0x3f660640	0.89853287
81	0xbd3f797a	-0.04674671
82	0xbdc0f7b2	-0.09422244
83	0xbedcc485	-0.43118683
84	0xbff5c065	-1.9199339
85	0xbf5f3569	-0.8719087
86	0xbfa1f474	-1.2652726
87	0x3e879247	0.26478788
88	0xbda57883	-0.080796264
89	0xbe9a0b58	-0.3008678
90	0x3ffc9dfb	1.9735712
91	0x3e285f45	0.16442592
92	0xbfc72b9a	-1.5560181
93	0x3fae4657	1.3615216
94	0xbe0d652d	-0.13808127
95	0xbf6aaa69	-0.91666275
96	0xbead7e82	-0.3388558
97	0xbff570bd	-1.917503
98	0x3ee7688f	0.4519696
99	0x3a440135	0.00074769865
100	0x404245ba	3.0355058
101	0xbf7a32b1	-0.977336
102	0x3e52b2fd	0.20576091
103	0x402264cb	2.537402
104	0x3fc64d55	1.549235
105	0xbe91fd22	-0.28513438
106	0xbe38ca6c	-0.18045968
107	0xbef56245	-0.47926536
108	0x3e3b961d	0.18318982
109	0x3ea3713c	0.31922328
110	0x3fbc3920	1.4704933
111	0xbe9e078a	-0.30865127
112	0xbde57e7a	-0.11205764
113	0xbf644486	-0.8916706
114	0x3f285f05	0.6576999
115	0xbdbf735b	-0.09348174
116	0x40296491	2.646763
117	0xbf0c118e	-0.54714286
118	0xbf044b82	-0.51677716
119	0x3f6150a5	0.8801368
120	0x3f4109eb	0.7540576
121	0x3f637647	0.8885235
122	0x3f7e74be	0.99396884
123	0x3ec63b2c	0.3871702
124	0xbdba8e5e	-0.09109186
125	0x3fc60cf3	1.5472702
126	0x3fa8a4af	1.3175257
127	0x3d413c68	0.04717675
128	0x3f466b9b	0.7750794
129	0xbf378b01	-0.7169648
130	0x3f7a4381	0.9775925
131	0x3e899467	0.26871035
132	0x3e4af3db	0.19819586
133	0xbefe2791	-0.49639562
134	0x3d855893	0.06511035
135	0xbe4f794b	-0.20261113
136	0x3dab6f41	0.083708294
137	0x40217321	2.522652
138	0xbd88e1ec	-0.06683716
139	0xbf71416e	-0.9424046
140	0xc002fc5e	-2.0466533
141	0x3e22f235	0.15912707
142	0xbf68c1a1	-0.90920454
143	0xbf1379e4	-0.57607865
144	0x3eb6d8aa	0.35712177
145	0x3f281deb	0.6567065
146	0x3f48df29	0.78465515
147	0xbf1562cd	-0.58353883
148	0xbf883cb7	-1.0643529
149	0x3f4f4dca	0.8097807
150	0x3f895192	1.0728018
151	0xbe2422c4	-0.16028887
152	0x3e4d2a90	0.20035768
153	0x3f710058	0.9414115
154	0x3df816b1	0.12113703
155	0xbc16364f	-0.009168222
156	0x3ecac577	0.3960378
157	0xbf1b29c2	-0.6061059
158	0x4033cc03	2.809327
159	0x3fd2e6d5	1.6476694
160	0x3f65a297	0.8970122
161	0x3f02d63c	0.51108146
162	0x3e7a4c46	0.24443159
163	0x3fdc4c79	1.7210838
164	0x3f461d29	0.77388245
165	0xbe6a5aff	-0.22886275
166	0x3fa8278d	1.313707
167	0x3d683552	0.056691475
168	0xbf537376	-0.82598054
169	0xbe1459b3	-0.14487343
170	0x3fa2b7ce	1.2712343
171	0xbeb5d6c8	-0.35515428
172	0xbf55921f	-0.8342609
173	0xbfa95301	-1.3228456
174	0x3f1d4f58	0.61449194
175	0x3fe0b330	1.7554684
176	0xbf389a43	-0.72110385
177	0xbfc171af	-1.5112818
178	0x3c9cb20e	0.019127872
179	0xbf36bbeb	-0.7138049
180	0xbf9d5978	-1.2292929
181	0x3e485692	0.19564274
182	0xbe323a55	-0.17405064
183	0xbfdf1616	-1.7428615
184	0x3f39d7f0	0.7259512
185	0x3fbc05cd	1.468927
186	0xbe9f0c8f	-0.3106427
187	0xbf79b69b	-0.9754426
188	0xbe1516dd	-0.14559503
189	0xbf4be1fe	-0.7964171
190	0x3f877276	1.0581806
191	0xbebd8bc2	-0.3702069
192	0x3fb00fb7	1.3754796
193	0x3fe03125	1.7514998
194	0xbf0f99b8	-0.5609393
195	0xbfb9b4ec	-1.4508338
196	0x3c942b91	0.01808718
197	0x3f6b0eb3	0.91819304
198	0x3d3c91e7	0.04603758
199	0xbec92b83	-0.3929101
200	0xc004e827	-2.0766695
201	0xbd9fe891	-0.078080304
202	0x3f69ee6d	0.91379434
203	0x3f4ba076	0.7954172
204	0x3f6d3469	0.92658097
205	0x3ea243e4	0.3169242
206	0xc0081895	-2.1265004
207	0x3e4f1fc5	0.20226963
208	0xbfbf5601	-1.4948121
209	0xbe113eff	-0.14184187
210	0x3f097be7	0.53704685
211	0xbf26adc7	-0.65108913
212	0xbfcf7c9e	-1.6209905
213	0x3d695a41	0.05697084
214	0x3e8bdad7	0.273154
215	0xbedcb650	-0.43107843
216	0x4030d5f2	2.7630582
217	0x3fd06e84	1.6283727
218	0x3f99968c	1.1999068
219	0x3f403497	0.75080246
220	0xbf23875a	-0.63878405
221	0x3f40ceab	0.7531535
222	0xbf151b3f	-0.582447
223	0x3da7dd40	0.08196497
224	0xbf11c83f	-0.56946176
225	0xbf2479c4	-0.642483
226	0xbf37a563	-0.71736735
227	0x3f8c99ce	1.0984437
228	0x3f5ae191	0.8550044
229	0x3f6276ec	0.8846271
230	0xbf7051be	-0.9387473
231	0xbedcba96	-0.43111104
232	0x3f2078bc	0.62684226
233	0xbfe0d4a1	-1.7564889
234	0x3c79f9f1	0.015257345
235	0xbe289753	-0.16463976
236	0xc002642d	-2.0373642
237	0xbe48f0a2	-0.19623044
238	0x3f581764	0.8441069
239	0xc02677d4	-2.6010637
240	0xc00542fc	-2.0822134
241	0x3f832ebc	1.0248637
242	0xbf9bea06	-1.2180793
243	0x3f04a34b	0.51811665
244	0x3d150e5b	0.036390644
245	0xbf461cb9	-0.7738758
246	0xbf94adac	-1.16155
247	0xbf79ad52	-0.9753009
248	0x3f247def	0.6425466
249	0x40051793	2.0795639
250	0x3fc1d6ed	1.5143715
251	0xbf004761	-0.50108916
252	0xbef5a123	-0.479745
253	0xbe2914a9	-0.16511787
254	0x3d4c1df4	0.049833253
255	0xbe0faa6a	-0.14029852

cat_embeds.1.weight f4 [486, 32]
0	0x00000000	0.0
1	0x00000000	0.0
2	0x00000000	0.0
3	0x00000000	0.0
4	0x00000000	0.0
5	0x00000000	0.0
6	0x00000000	0.0
7	0x00000000	0.0
8	0x00000000	0.0
9	0x00000000	0.0
10	0x00000000	0.0
11	0x00000000	0.0
12	0x00000000	0.0
13	0x00000000	0.0
14	0x00000000	0.0
15	0x00000000	0.0
16	0x00000000	0.0
17	0x00000000	0.0
18	0x00000000	0.0
19	0x00000000	0.0
20	0x00000000	0.0
21	0x00000000	0.0
22	0x00000000	0.0
23	0x00000000	0.0
24	0x00000000	0.0
25	0x00000000	0.0
26	0x00000000	0.0
27	0x00000000	0.0
28	0x00000000	0.0
29	0x00000000	0.0
30	0x00000000	0.0
31	0x00000000	0.0
32	0xbf876b6c	-1.0579658
33	0xc00471d2	-2.069447
34	0xc02f8363	-2.7423942
35	0x3f26dc15	0.6517957
36	0xbed75108	-0.4205401
37	0xbf94cc97	-1.1624936
38	0xbed2607a	-0.4108923
39	0xbf1521bc	-0.582546
40	0xbfa04f64	-1.2524228
41	0xbf496ec9	-0.7868467
42	0x3f03c79c	0.51476455
43	0xbeb28da5	-0.3487369
44	0x3e63b0a6	0.22235355
45	0x3fa54392	1.2911246
46	0xbfa7dcfc	-1.3114314
47	0xbf663593	-0.899255
48	0x3f066721	0.5250111
49	0xbf75c695	-0.9600614
50	0x3f4f91a0	0.8108158
51	0xbff09efe	-1.879852
52	0x3f8406e8	1.0314608
53	0xbf321ed1	-0.6957827
54	0xbeeeffcf	-0.4667954
55	0xbed89ef2	-0.42308766
56	0xbf0e7835	-0.5565217
57	0x3c31acdb	0.010844435
58	0xbfe0164d	-1.7506806
59	0xbdd4410a	-0.10363968
60	0xbec4a775	-0.3840901
61	0xbfa3a749	-1.2785426
62	0x3f2abb8a	0.6669241
63	0xbf20518f	-0.6262445
64	0x3ff36f32	1.9018309
65	0xbf9af28c	-1.210527
66	0x3e9b511e	0.30335325
67	0xbf3ccdc4	-0.73751473
68	0xbf484025	-0.78222877
69	0x3ea74c9d	0.3267564
70	0x3e98d139	0.29847124
71	0x3f8d6a5e	1.1048086
72	0x3efd6136	0.4948823
73	0x3e4f55b0	0.20247531
74	0xbf0c67d6	-0.5484594
75	0x3db2db0c	0.08733186
76	0xbe886a7b	-0.26643738
77	0x3f94441b	1.1583284
78	0x3d00ffdf	0.031494018
79	0x3fd3c667	1.6544923
80	0x3da4cee2	0.08047272
81	0x3e43c896	0.19119486
82	0x3f9ab4fa	1.208648
83	0xbc9c4895	-0.019077579
84	0xbe456153	-0.19275407
85	0xbf48c388	-0.78423357
86	0xbf8cd96d	-1.1003853
87	0x3e9e5559	0.3092449
88	0xbede6192	-0.43433815
89	0x3fec986f	1.8484019
90	0x3f3a4257	0.72757477
91	0x400a253a	2.1585221
92	0xbf31c72a	-0.69444525
93	0x3e46fc74	0.1943224
94	0x3f8d52e3	1.104092
95	0x3f8a59b9	1.0808631
96	0xbddf401e	-0.10900901
97	0x3f1df1ab	0.6169688
98	0xbea4334e	-0.32070392
99	0xbf825c5d	-1.0184437
100	0xbf8626d7	-1.0480603
101	0xc001dedd	-2.0292275
102	0x3f3653e8	0.7122178
103	0xbd5ab206	-0.053392433
104	0xbe383398	-0.17988431
105	0x3f7803f7	0.9688105
106	0xbec6892e	-0.38776535
107	0x3f6bb39f	0.92070955
108	0xbf0da4b3	-0.55329436
109	0xbecc3236	-0.39882058
110	0xbe22a323	-0.15882544
111	0x3e338e62	0.17534783
112	0x3f35cf56	0.71019495
113	0x3f1e2bc3	0.61785525
114	0x3f5e653b	0.86873215
115	0x3eea561a	0.45768815
116	0x3f9582d2	1.1680548
117	0xbfe7edea	-1.8119481
118	0x3fae836d	1.3633858
119	0x3d0f8de9	0.035047445
120	0xc00a46b5	-2.1605656
121	0xbe119a21	-0.14218952
122	0xbe905bd8	-0.2819507
123	0x3f5694a3	0.8382055
124	0xbf3ad070	-0.729743
125	0x3f7451c9	0.95437294
126	0xbe8b6208	-0.2722323
127	0x3f5fbc03	0.8739626
128	0x3e231f0e	0.15929815
129	0xbf25acfd	-0.64717084
130	0x3e71c00a	0.23608413
131	0xbe374061	-0.17895652
132	0x3e1248de	0.14285609
133	0xbf61c554	-0.88191724
134	0xbe6cebe5	-0.23136862
135	0x3efef140	0.49793434
136	0x3f930176	1.1484821
137	0xbf1eb814	-0.6199963
138	0x3ec5f2fc	0.38661945
139	0x3d92fd02	0.07177164
140	0xbf904956	-1.127238
141	0xbedd6278	-0.43239188
142	0xbf585b9d	-0.8451479
143	0x3f56c32e	0.8389157
144	0x3f8fe1eb	1.124082
145	0x3f8732db	1.0562395
146	0x3f55426d	0.8330448
147	0xbf05c25d	-0.522497
148	0xc0024cec	-2.035945
149	0x3f27ad23	0.6549856
150	0x3f1f2168	0.6216035
151	0x3f3ee6df	0.7457103
152	0xbe97cb90	-0.29647493
153	0xbece872c	-0.40337503
154	0x3f45c7d5	0.77258044
155	0x3f2b5bad	0.6693676
156	0x3f8176ab	1.011434
157	0xbec397a2	-0.38201624
158	0xbee5f3c9	-0.44912556
159	0x3f40e0e5	0.7534316
160	0xbf2f4135	-0.68458873
161	0xbd9521c1	-0.07281829
162	0x3e9f9360	0.31167126
163	0x3dd62fdf	0.104583494
164	0xbf1e58ad	-0.6185406
165	0xbfacc8f9	-1.3498832
166	0xbf9e84d2	-1.2384284
167	0xbfa171d1	-1.2612859
168	0x3e9d386e	0.30707115
169	0x3f8b947e	1.0904691
170	0xbf878d14	-1.0589929
171	0xbeecea61	-0.46272567
172	0xbf4bbe07	-0.79586834
173	0x3f8307ca	1.0236752
174	0x3fd4cead	1.6625572
175	0x3e7d9e76	0.2476748
176	0x3f0f56e1	0.5599194
177	0x3e495eb4	0.19665033
178	0xbdaab119	-0.0833456
179	0x3e04c01f	0.12963913
180	0x3fa74fbd	1.3071209
181	0x3ebc8984	0.36823666
182	0x3fa5d75f	1.2956351
183	0x3ec29e85	0.38011566
184	0xbf3c6008	-0.7358403
185	0x3ebf9b08	0.37422967
186	0x3fa49cf3	1.2860397
187	0xbe87d079	-0.2652624
188	0xbdd5a36b	-0.1043156
189	0xbf4c28c0	-0.7974968
190	0x3fa5a586	1.2941139
191	0xbe42384d	-0.1896679
192	0xbf4330ea	-0.7624651
193	0xbf00c394	-0.5029843
194	0xbd72f217	-0.059312906
195	0xbe38c39b	-0.18043368
196	0xbfe09c33	-1.7547668
197	0xbf0d90c0	-0.55298996
198	0xc0014309	-2.0197165
199	0x3f37bbf6	0.7177118
200	0xbcc59b5b	-0.02412193
201	0x3f495578	0.7864604
202	0xbefeb05f	-0.49743935
203	0x3f932057	1.1494244
204	0x4004e0a9	2.0762122
205	0xbf94aab1	-1.1614591
206	0x3fa86df5	1.3158556
207	0xbda95608	-0.08268362
208	0x3f7a01ca	0.9765898
209	0xbfbb178d	-1.4616562
210	0xbf5b1396	-0.8557676
211	0xbec93fde	-0.3930654
212	0xbf3c2254	-0.7348988
213	0x3f37ddc8	0.71822786
214	0x3f66256a	0.8990084
215	0x3fce8fa9	1.6137592
216	0xbf596d5b	-0.8493249
217	0xbff38819	-1.9025909
218	0x3ed540fe	0.41651148
219	0x3fcc978e	1.5983751
220	0x3f69a2a7	0.9126381
221	0x3e7b1c50	0.24522519
222	0xbf1b51d1	-0.60671717
223	0x3f38a226	0.7212242
224	0x3fbc5721	1.471409
225	0x3f2b52b0	0.66923046
226	0xbefe0a93	-0.49617442
227	0x3f0d8798	0.55285025
228	0x3ea91731	0.33025506
229	0xbe2c21aa	-0.16809717
230	0x3c4e5bfb	0.012595172
231	0xbea3ed32	-0.32016903
232	0x3e91bed4	0.28465903
233	0xbe9610bf	-0.2930965
234	0x400b5441	2.1770175
235	0x3ef72616	0.48271245
236	0xbdb28968	-0.087176144
237	0xbe2d3248	-0.16913712
238	0xbfe54d93	-1.7914299
239	0xbf15d444	-0.58527017
240	0xbe55f8ce	-0.20895693
241	0xbec4e270	-0.38454008
242	0x3ed99403	0.42495736
243	0xbf8c021b	-1.0938143
244	0xbf2377c4	-0.6385462
245	0xbf997147	-1.1987695
246	0xbf4a88f4	-0.79115224
247	0xbe4bfa41	-0.19919683
248	0xbe43cef5	-0.19121917
249	0xbdbacb70	-0.09120834
250	0x3d74c281	0.059755806
251	0xbdf935cd	-0.12168465
252	0xbf804fea	-1.0024388
253	0xbe27e96c	-0.16397637
254	0xbe881aec	-0.2658304
255	0xbfbe84dc	-1.4884295

cat_embeds.2.weight f4 [12, 32]
0	0x00000000	0.0
1	0x00000000	0.0
2	0x00000000	0.0
3	0x00000000	0.0
4	0x00000000	0.0
5	0x00000000	0.0
6	0x00000000	0.0
7	0x00000000	0.0
8	0x00000000	0.0
9	0x00000000	0.0
10	0x00000000	0.0
11	0x00000000	0.0
12	0x00000000	0.0
13	0x00000000	0.0
14	0x00000000	0.0
15	0x00000000	0.0
16	0x00000000	0.0
17	0x00000000	0.0
18	0x00000000	0.0
19	0x00000000	0.0
20	0x00000000	0.0
21	0x00000000	0.0
22	0x00000000	0.0
23	0x00000000	0.0
24	0x00000000	0.0
25	0x00000000	0.0
26	0x00000000	0.0
27	0x00000000	0.0
28	0x00000000	0.0
29	0x00000000	0.0
30	0x00000000	0.0
31	0x00000000	0.0
32	0x3f5c9150	0.8615923
33	0x3e6d9894	0.23202735
34	0xbe7c5224	-0.24640709
35	0x3fa319ef	1.2742289
36	0xbf056bf9	-0.5211788
37	0xbe8b2f2d	-0.2718443
38	0xbfb438d3	-1.4079841
39	0xbff39d09	-1.9032298
40	0xbf2cd2b9	-0.6750904
41	0x3eabc515	0.335488
42	0xbfb67212	-1.4253561
43	0x3d26f04a	0.0407565
44	0xbd03d442	-0.032184847
45	0xbf5491e3	-0.83035105
46	0xbf9cd57a	-1.2252648
47	0x3db07fe2	0.08618142
48	0xbf2ca8ae	-0.67444885
49	0xbd9b8bd7	-0.07595032
50	0x3f214b61	0.63005644
51	0xbefefbd0	-0.49801493
52	0xbf56793e	-0.8377875
53	0xbeab028e	-0.33400387
54	0xbefdca06	-0.49568194
55	0xbf7319e0	-0.9496136
56	0x3e69d290	0.2283423
57	0xbf4fbb5a	-0.8114525
58	0x3fa0a8d5	1.2551523
59	0x3f44f190	0.76931095
60	0x3fbbab83	1.4661716
61	0xbf262d10	-0.6491251
62	0x3f026437	0.50934166
63	0xbfad4972	-1.3538039
64	0x3f043f6f	0.5165929
65	0x3e1497f9	0.14511098
66	0x3ccd1c76	0.025037985
67	0xc0005aa6	-2.0055327
68	0xbdb3040e	-0.08741008
69	0xbf9a3d53	-1.2049965
70	0x3f8be5a2	1.0929453
71	0xbf8ef23f	-1.1167678
72	0xbf96c4ff	-1.1778868
73	0x3ee39f36	0.44457406
74	0x3f20fcc8	0.62885714
75	0x3fc4dbf9	1.537963
76	0x3ebc9e5d	0.36839572
77	0xbf3ef74a	-0.74596083
78	0xbf0beee9	-0.5466142
79	0x3fbadc98	1.459857
80	0xbdbde227	-0.09271651
81	0x3f33508c	0.7004478
82	0x3f8284dd	1.0196797
83	0x3fa8e0f6	1.3193653
84	0x3f9bd854	1.2175393
85	0xbf664632	-0.8995086
86	0x400f8f3d	2.2431176
87	0x3f24d308	0.6438451
88	0x3fd3388b	1.650163
89	0x3e687002	0.22698978
90	0xbfd7ee8f	-1.6869677
91	0xbf098e92	-0.5373317
92	0xbe971151	-0.295054
93	0xbfba58ee	-1.4558389
94	0xbeb2f062	-0.34949023
95	0x3fdacf52	1.7094519
96	0x3fbe61b6	1.4873569
97	0xbebd11d9	-0.3692768
98	0x3fa0704e	1.2534273
99	0xbf550569	-0.8321138
100	0x3fe8e74c	1.8195586
101	0x3f487e1b	0.7831742
102	0xbef49b9c	-0.4777497
103	0xbe827a7f	-0.25484082
104	0xbfd4ebcb	-1.6634458
105	0x3f71a7d7	0.9439673
106	0x3d50169c	0.050802812
107	0x3f71d63d	0.94467527
108	0x3fbb1181	1.4614717
109	0xbe25bde4	-0.16185719
110	0x3f8b1f19	1.0868865
111	0x3fbc4dd6	1.4711254
112	0xbeb805c3	-0.35941896
113	0x3fe5a22d	1.7940117
114	0xbf474082	-0.77832806
115	0x3cb33741	0.021876933
116	0xbef43606	-0.47697467
117	0xbf889466	-1.0670288
118	0x3fd095ee	1.6295755
119	0xbe58bc61	-0.21165611
120	0xbebeaf6f	-0.3724322
121	0x3f8bbfe5	1.0917937
122	0x3f30b2d3	0.69022864
123	0x3e599a13	0.21250181
124	0xbeae2504	-0.34012616
125	0x3f2ae52f	0.66755956
126	0xbf05babc	-0.5223806
127	0x3f6fd9e0	0.93691826
128	0x3fd19377	1.6373128
129	0xbf97d623	-1.1862224
130	0xbec72b62	-0.38900286
131	0xbe6c025f	-0.2304778
132	0x3f0c7454	0.54865
133	0xbf74b89f	-0.9559421
134	0x3f21e87c	0.6324537
135	0x3f914c78	1.1351461
136	0x3ef3180e	0.4747929
137	0xbfc93a8c	-1.5720992
138	0x3ff1b150	1.8882236
139	0x3f5966b8	0.8492236
140	0x3f59fafe	0.8514861
141	0x3f3d89de	0.74038494
142	0x3feb2acf	1.8372439
143	0xbeedb380	-0.4642601
144	0x3f2ce0c8	0.6753049
145	0x3fdde0bf	1.7334212
146	0x3ec17517	0.37784645
147	0x3f8ad043	1.0844806
148	0xbfcf7221	-1.6206704
149	0xbf94efdd	-1.16357
150	0xbefc3523	-0.4925929
151	0xbeab74bf	-0.33487508
152	0xbed47ba7	-0.4150059
153	0xbf43e2a5	-0.7651771
154	0xbeb0a4e3	-0.345008
155	0x3df6df91	0.12054361
156	0x3fa927f2	1.3215315
157	0x3e5f88b1	0.21829487
158	0xbf396f99	-0.7243591
159	0x3e126704	0.1429711
160	0xbda2da3e	-0.07951783
161	0xbfbb77b7	-1.4645909
162	0xbfc47740	-1.5348892
163	0xbeb0c503	-0.34525308
164	0x3f31d7ff	0.6947021
165	0xbdc9d069	-0.09854204
166	0xbf62e17d	-0.8862532
167	0x402b227f	2.6739805
168	0x3dcc929b	0.099889
169	0xbf87da11	-1.0613424
170	0x3f0ea218	0.55716085
171	0xbe934989	-0.2876704
172	0xbf595fca	-0.8491179
173	0x3cfa5274	0.030556895
174	0xbfd0a147	-1.6299218
175	0xbec67455	-0.3876063
176	0x3f03ec41	0.5153237
177	0xbfe5960d	-1.7936417
178	0x3e49a340	0.19691181
179	0xbf27ed86	-0.65596807
180	0xbed19e8f	-0.40941283
181	0xbee46173	-0.44605598
182	0xbf9e9228	-1.2388353
183	0x3f660003	0.8984377
184	0x3c561843	0.013067308
185	0x3ef28b30	0.47371817
186	0x3eb364b6	0.35037774
187	0x3fe80f29	1.8129627
188	0x3eb485a7	0.3525822
189	0x3f9c6b35	1.2220217
190	0xbf76e331	-0.96440417
191	0xc00120af	-2.0176198
192	0xbdd89de7	-0.105769925
193	0x3ee98861	0.4561186
194	0xbebc85cc	-0.3682083
195	0x3c248756	0.010042032
196	0xbf61436e	-0.87993515
197	0x3f0d715d	0.55251104
198	0x3fd5ae8c	1.6693892
199	0xbec9e29a	-0.39430696
200	0x3f72a48d	0.94782335
201	0x402fccae	2.7468677
202	0x3ec3da8d	0.3825268
203	0xbfbbc3c6	-1.466912
204	0x3eba9f24	0.3644954
205	0xbfcd5355	-1.6041056
206	0x3f8f65a0	1.1202888
207	0x3d87a685	0.06623558
208	0x3f976169	1.1826602
209	0xbfe39e48	-1.7782679
210	0xc06a2cc8	-3.6589832
211	0x3f75785d	0.95886785
212	0x3ead39e2	0.33833224
213	0x3ed2d3a5	0.41177097
214	0x3f101951	0.5628863
215	0x3fe22f36	1.7670658
216	0xbfa89ebf	-1.3173445
217	0x3f391a01	0.72305304
218	0xbf60713e	-0.87672794
219	0xbfa4597d	-1.283981
220	0xbf891f07	-1.0712594
221	0xbf09ce17	-0.53830093
222	0xbfd44f40	-1.6586685
223	0x3f8b8a6d	1.0901619
224	0xbf5366bb	-0.8257863
225	0x3e2b8cff	0.16753004
226	0xbf501447	-0.8128094
227	0xbdc573a0	-0.09641194
228	0xbf4cb33f	-0.7996101
229	0xbe28cc8c	-0.16484278
230	0x3faafd78	1.3358603
231	0x3e0b4cdf	0.13603543
232	0x3f8c0a51	1.0940648
233	0x3f41d58d	0.7571648
234	0xbee7fded	-0.45310917
235	0xbfbba4c5	-1.4659659
236	0xbe605714	-0.21908218
237	0xc0008e2c	-2.0086775
238	0x3f981f2e	1.1884515
239	0x3f8c30dc	1.0952411
240	0x3f4b833d	0.7949713
241	0xbeeb7d33	-0.45993957
242	0xbeb0fdb5	-0.34568563
243	0xbf4fd40c	-0.8118293
244	0x3e15cc34	0.14628679
245	0x3f93f8df	1.1560324
246	0xbedd6123	-0.43238172
247	0x3f747c0c	0.9550178
248	0xbfa3bf4f	-1.2792758
249	0xbf4f7e75	-0.81052333
250	0x3e21fa32	0.15818098
251	0xbe883e41	-0.26609996
252	0xbfb39ee1	-1.4032861
253	0x3ef4805d	0.47754183
254	0x3ff77101	1.9331361
255	0x3da889c9	0.082294054

cat_embeds.3.weight f4 [2, 32]
0	0x00000000	0.0
1	0x00000000	0.0
2	0x00000000	0.0
3	0x00000000	0.0
4	0x00000000	0.0
5	0x00000000	0.0
6	0x00000000	0.0
7	0x00000000	0.0
8	0x00000000	0.0
9	0x00000000	0.0
10	0x00000000	0.0
11	0x00000000	0.0
12	0x00000000	0.0
13	0x00000000	0.0
14	0x00000000	0.0
15	0x00000000	0.0
16	0x00000000	0.0
17	0x00000000	0.0
18	0x00000000	0.0
19	0x00000000	0.0
20	0x00000000	0.0
21	0x00000000	0.0
22	0x00000000	0.0
23	0x00000000	0.0
24	0x00000000	0.0
25	0x00000000	0.0
26	0x00000000	0.0
27	0x00000000	0.0
28	0x00000000	0.0
29	0x00000000	0.0
30	0x00000000	0.0
31	0x00000000	0.0
32	0xc0099b91	-2.15012
33	0xbf05d17b	-0.52272767
34	0xbf0d539c	-0.552057
35	0x3f5283cd	0.8223236
36	0x3f0624e1	0.5240002
37	0x3f4f0755	0.8087056
38	0xbf1425c3	-0.5787012
39	0x3f98c724	1.1935773
40	0x3e97ba9e	0.29634565
41	0xbdaaff93	-0.08349528
42	0x3fc3ba5a	1.5291245
43	0xbea0b638	-0.31389022
44	0x3f8fee0c	1.1244521
45	0xbf817d97	-1.0116452
46	0x3fd20117	1.6406583
47	0x400ba09f	2.1816785
48	0x3f3716bc	0.71519065
49	0xbfc72fc4	-1.5561452
50	0x3f5c0d61	0.85957915
51	0x3c724e15	0.014789124
52	0xbef3aa9f	-0.4759111
53	0x3f8f6772	1.1203444
54	0xbec82aa3	-0.3909503
55	0x3da73604	0.081645995
56	0x3f5655a7	0.83724445
57	0x3f059cde	0.52192485
58	0xbc8ddc14	-0.017316855
59	0x3f565677	0.83725685
60	0x3d47f6f8	0.048819512
61	0x3f322cad	0.6959942
62	0xbd678879	-0.056526635
63	0xbeb9175d	-0.36150637

cat_embeds.4.weight f4 [32, 32]
0	0x00000000	0.0
1	0x00000000	0.0
2	0x00000000	0.0
3	0x00000000	0.0
4	0x00000000	0.0
5	0x00000000	0.0
6	0x00000000	0.0
7	0x00000000	0.0
8	0x00000000	0.0
9	0x00000000	0.0
10	0x00000000	0.0
11	0x00000000	0.0
12	0x00000000	0.0
13	0x00000000	0.0
14	0x00000000	0.0
15	0x00000000	0.0
16	0x00000000	0.0
17	0x00000000	0.0
18	0x00000000	0.0
19	0x00000000	0.0
20	0x00000000	0.0
21	0x00000000	0.0
22	0x00000000	0.0
23	0x00000000	0.0
24	0x00000000	0.0
25	0x00000000	0.0
26	0x00000000	0.0
27	0x00000000	0.0
28	0x00000000	0.0
29	0x00000000	0.0
30	0x00000000	0.0
31	0x00000000	0.0
32	0xc006d793	-2.1069076
33	0xbf3779c9	-0.71670204
34	0xbd23b6e9	-0.03996936
35	0xbf352df8	-0.7077327
36	0x3f392941	0.72328573
37	0xc003d291	-2.059727
38	0xbf4f2294	-0.8091214
39	0xbf7a4479	-0.9776073
40	0xc01d0e6f	-2.454006
41	0x3f11acdb	0.5690438
42	0x3e525060	0.20538473
43	0x3f86076f	1.0471019
44	0x3fd132ac	1.6343589
45	0xbe9cba83	-0.30611047
46	0xbd979ab5	-0.07402555
47	0xbead3020	-0.3382578
48	0x3fa76a7f	1.3079375
49	0x3e217b7f	0.15769766
50	0x3eb389d3	0.3506609
51	0xbf9af5f2	-1.2106307
52	0xbf52aa1d	-0.8229082
53	0x3f38125e	0.71903026
54	0xbe60e23f	-0.21961306
55	0xbfa8baff	-1.3182067
56	0xbf87cf01	-1.0610048
57	0x3f144e8d	0.5793236
58	0x3e562989	0.20914282
59	0x3fd70d33	1.6800903
60	0xbed9d2ad	-0.42543545
61	0xbf05a037	-0.52197593
62	0xc0030fcc	-2.0478392
63	0x3f816f75	1.0112139
64	0xbfb66067	-1.424817
65	0xbf217433	-0.6306793
66	0xbe9f0606	-0.31059283
67	0x3fa8cac9	1.3186885
68	0xbfb30adc	-1.3987689
69	0x3f3fed92	0.7497188
70	0x3f73ee26	0.9528526
71	0x3f92c369	1.1465884
72	0xbf12d883	-0.5736162
73	0x4018f48f	2.3899267
74	0xbf717710	-0.943223
75	0xbe108b3a	-0.1411561
76	0x3f8a90fd	1.0825497
77	0xbfb0daa1	-1.381672
78	0xbf6d031f	-0.9258289
79	0x3f991d31	1.1962034
80	0xbf92f2f1	-1.148039
81	0x3e7b67af	0.24551271
82	0x3fe4b7f8	1.7868643
83	0x3f5fbe4d	0.8739975
84	0xbeabfa75	-0.3358952
85	0xbf125f2c	-0.5717647
86	0x3faae51f	1.3351172
87	0x3f4f2056	0.80908716
88	0x3e8ed011	0.27893117
89	0xbdf712d5	-0.12064139
90	0xbf5d1d96	-0.8637327
91	0x3e51208d	0.20422573
92	0xbf871cac	-1.0555625
93	0xbf0aa86b	-0.54163235
94	0x3e14cab3	0.14530449
95	0x3ff82687	1.9386758
96	0xbf8aef2c	-1.085424
97	0xbec61819	-0.3869026
98	0xbf31d899	-0.69471127
99	0x3d9f1c53	0.07769074
100	0x4004ad70	2.0730858
101	0xbc96d2dc	-0.018411092
102	0xbfaaa76a	-1.3332341
103	0xbeebc029	-0.46045044
104	0xbf489916	-0.7835859
105	0x3db3b192	0.08774103
106	0xbf8dee8b	-1.1088423
107	0xbf1988ad	-0.59974176
108	0xbe9b3737	-0.30315563
109	0xbf644eeb	-0.8918292
110	0xbf9c6a3f	-1.2219924
111	0x3d2dd326	0.042437695
112	0xbdc4bc2d	-0.09606204
113	0x3ec89066	0.39172667
114	0xbf828ac2	-1.0198596
115	0xc024a902	-2.5728154
116	0xbffca2c1	-1.9737169
117	0xbf7919f3	-0.9730522
118	0xbf7ee1b9	-0.99563175
119	0x3ecde599	0.40214232
120	0xbfa69227	-1.3013352
121	0x3f86ae0e	1.0521867
122	0x3e303b7a	0.17210189
123	0xbfafddb5	-1.3739535
124	0xbf692f0b	-0.91087407
125	0xbe21d865	-0.15805204
126	0x3f2d1290	0.6760645
127	0x3f58db38	0.847095
128	0xbec43b3e	-0.38326448
129	0xbfcc6f34	-1.5971437
130	0x3eb3d8d9	0.3512638
131	0xbdcb1831	-0.099167235
132	0x3e142cf1	0.14470269
133	0x3f15b855	0.58484393
134	0x3f008090	0.5019617
135	0xbfafa300	-1.3721619
136	0xbef98a4f	-0.48738334
137	0x3f4de219	0.8042312
138	0x3f3cc0d6	0.73731744
139	0xc00bbfa4	-2.1835718
140	0x3f09a4c4	0.5376704
141	0xbf8c1ff0	-1.0947247
142	0xbdf4173d	-0.11918495
143	0xbdf01423	-0.11722591
144	0xbfa9a7c8	-1.3254328
145	0xbf5c2bb5	-0.8600419
146	0xbe86128d	-0.26186028
147	0x3f9be700	1.2179871
148	0xbf63daa2	-0.8900548
149	0xbf313d16	-0.69233835
150	0x3e843594	0.25822127
151	0xbfc96cce	-1.573633
152	0xbe259939	-0.16171731
153	0xbfdfeeb5	-1.7494723
154	0x3f7af3f3	0.98028487
155	0xbf634b21	-0.8878651
156	0x3fc85d50	1.5653477
157	0xbf18f4b4	-0.5974839
158	0xbf972d0a	-1.181062
159	0x3f3fb126	0.7487968
160	0xbe2e1024	-0.16998345
161	0xbfd6fe13	-1.6796287
162	0x3ec89592	0.39176613
163	0xbf8d10d7	-1.1020764
164	0x3eef1edf	0.4670324
165	0xbf56e5a3	-0.8394415
166	0x3f432725	0.76231605
167	0xbe4633ec	-0.19355744
168	0x3fb233ef	1.3922099
169	0xbfdbb58a	-1.7164776
170	0x3fc5e870	1.5461559
171	0x3f5de641	0.86679465
172	0x3f205df9	0.6264339
173	0x4000067e	2.0003963
174	0x3fea5947	1.8308495
175	0xbe07d025	-0.13262995
176	0xbf70ad1e	-0.94014156
177	0x3fcf4e0e	1.6195695
178	0x3ce5dbe6	0.028058957
179	0x3f91d557	1.1393231
180	0x3bd2788e	0.0064230626
181	0x3f3b6904	0.73207116
182	0xbf0da9ef	-0.55337423
183	0x4008c037	2.1367319
184	0xbfea5b51	-1.8309118
185	0xbf1ec50b	-0.62019414
186	0x3f49237f	0.7856979
187	0x400b745c	2.178977
188	0xbe05a0bf	-0.13049601
189	0xbfd87bab	-1.691274
190	0xbf5689c9	-0.83803993
191	0x3fb8aefd	1.4428402
192	0x3fa02875	1.2512347
193	0xbe292e72	-0.16521624
194	0xbd365c17	-0.044521417
195	0xbf31a3c2	-0.693905
196	0xbf1825b9	-0.5943256
197	0x3f12d363	0.573538
198	0x3f3ddbb9	0.74163395
199	0xbfab809f	-1.3398627
200	0x3f7779c9	0.96670204
201	0xbfa8b976	-1.3181598
202	0x3f294fc2	0.66137326
203	0x3f97d38a	1.1861432
204	0x3f1e4f35	0.6183961
205	0x3ff497a1	1.9108773
206	0x3f1f5abb	0.6224782
207	0xbf8f1c34	-1.1180482
208	0xbfe91ecd	-1.8212525
209	0x3f0f90a3	0.56080073
210	0x3f8150a5	1.0102736
211	0x3f2eb2ed	0.6824177
212	0xbe8ccece	-0.2750153
213	0x3f88c546	1.0685203
214	0x3da42816	0.08015458
215	0xbef4d125	-0.47815815
216	0xbecd7606	-0.40129107
217	0x3f53b8da	0.82703936
218	0x3ed1a9a6	0.40949744
219	0x3f015fe6	0.50536954
220	0x3f41c84c	0.75696254
221	0x3e509e3a	0.20372859
222	0x3e0e26ef	0.1388204
223	0x400029fc	2.0025625
224	0xbf985bf5	-1.1903063
225	0x3eaca841	0.33722118
226	0x3ce9b16b	0.028526982
227	0xbf0f9b73	-0.5609657
228	0xbeb573ca	-0.35439903
229	0xbf53aac0	-0.8268242
230	0x3eba3e91	0.3637586
231	0xbf50b430	-0.81524944
232	0x3f4fed6e	0.81221664
233	0xbf612aae	-0.8795575
234	0x3fb522c5	1.4151236
235	0x3fe5153c	1.7897105
236	0x3fbe02a7	1.484456
237	0x3fc9940a	1.5748303
238	0x3ef2d669	0.47429207
239	0xbdb50aed	-0.088399746
240	0xbf4eef73	-0.8083412
241	0xbf1db7ac	-0.61608386
242	0xbfc2e1bf	-1.5225142
243	0x3f0bb164	0.5456755
244	0xbf8e6d4c	-1.1127105
245	0x3f548bde	0.8302592
246	0x3ddaae6c	0.106777996
247	0xbfb9950f	-1.4498614
248	0x3f90d11d	1.1313816
249	0x3e7b5686	0.24544725
250	0xbe810d46	-0.2520544
251	0x3fe390d6	1.7778575
252	0xbd996120	-0.07489228
253	0xbf16bb25	-0.5887931
254	0xbe6bfb55	-0.23045094
255	0x3f542cc4	0.82880807

cat_embeds.5.weight f4 [8, 32]
0	0x00000000	0.0
1	0x00000000	0.0
2	0x00000000	0.0
3	0x00000000	0.0
4	0x00000000	0.0
5	0x00000000	0.0
6	0x00000000	0.0
7	0x00000000	0.0
8	0x00000000	0.0
9	0x00000000	0.0
10	0x00000000	0.0
11	0x00000000	0.0
12	0x00000000	0.0
13	0x00000000	0.0
14	0x00000000	0.0
15	0x00000000	0.0
16	0x00000000	0.0
17	0x00000000	0.0
18	0x00000000	0.0
19	0x00000000	0.0
20	0x00000000	0.0
21	0x00000000	0.0
22	0x00000000	0.0
23	0x00000000	0.0
24	0x00000000	0.0
25	0x00000000	0.0
26	0x00000000	0.0
27	0x00000000	0.0
28	0x00000000	0.0
29	0x00000000	0.0
30	0x00000000	0.0
31	0x00000000	0.0
32	0x3e9426fd	0.28935996
33	0xbd986ecc	-0.07443008
34	0x3f52e1df	0.823759
35	0xbfd9cad4	-1.7015023
36	0x3f29c119	0.6631027
37	0xbf8d0c9b	-1.1019472
38	0x3fdb05a0	1.7111092
39	0x3ecbbd7f	0.39793012
40	0x3ed08355	0.40725198
41	0x3f23b16f	0.6394262
42	0xbeb380b3	-0.35059127
43	0xbd5ae941	-0.053445105
44	0x3f872e9b	1.0561098
45	0x3fb46b75	1.4095293
46	0xbe163a04	-0.14670569
47	0xbf446f12	-0.7673198
48	0x3f94f632	1.1637633
49	0x402727ba	2.6117997
50	0xbd950d74	-0.072779566
51	0xbfd1f5d8	-1.640315
52	0xbe8fb233	-0.28065643
53	0xbec6289d	-0.3870286
54	0x3f397586	0.7244495
55	0x3f6a0e08	0.9142766
56	0x3f304dc7	0.6886868
57	0x3f43e05c	0.7651422
58	0x3e2b9aca	0.16758266
59	0xbdaa16d6	-0.08305137
60	0xbbf414f3	-0.0074487864
61	0x3fd35207	1.6509408
62	0x3fae4856	1.3615825
63	0x3fc743bb	1.5567545
64	0x3f681a05	0.906647
65	0xbc0a00af	-0.008423015
66	0x3f1fa16b	0.6235568
67	0x3f68d1d6	0.90945184
68	0x3e526c03	0.20549016
69	0xbeb125e1	-0.34599212
70	0xbea594d5	-0.32340112
71	0xbf720ec6	-0.9455379
72	0x3dbc60ce	0.091981515
73	0xbe8f7f96	-0.28027028
74	0x3f852165	1.0400816
75	0xbfc4f877	-1.5388325
76	0xbf354b07	-0.7081761
77	0x3d6f4161	0.05841196
78	0x3fbd9e3f	1.4813918
79	0xbf42a257	-0.7602896
80	0x3fab71f2	1.3394148
81	0xbf200ba7	-0.6251778
82	0x3ff522d1	1.915125
83	0x3e063a3f	0.13108157
84	0x3e956c7b	0.29184327
85	0x3fb9c430	1.4512997
86	0xbefe9f1e	-0.49730772
87	0xbf0f28b5	-0.5592149
88	0xbf0c6ba7	-0.54851764
89	0x3fe17c60	1.7616081
90	0xbe70229c	-0.23450702
91	0xbea470bd	-0.32117262
92	0x4013da7c	2.3102102
93	0x3e9cb0cd	0.30603638
94	0x401f2c3d	2.487075
95	0xbfc45894	-1.5339532
96	0xbf408fb6	-0.75219285
97	0x3e8d39dc	0.27583206
98	0xbd187fc0	-0.037231207
99	0x3fbf04a1	1.4923288
100	0x3ef5f35a	0.48037225
101	0xbe7be2cd	-0.24598236
102	0x3ddab512	0.10679068
103	0x3fbc31e3	1.4702724
104	0x3ea4ad09	0.32163265
105	0x3efd24f9	0.4944227
106	0xbeeed9f3	-0.46650657
107	0x3ff7b495	1.9351984
108	0x400c055c	2.187827
109	0x3e4438a1	0.19162227
110	0xbece469d	-0.4028825
111	0x3fa19e9e	1.2626531
112	0x3e4efd11	0.20213725
113	0xbe039aee	-0.1285207
114	0xbfeeb4d3	-1.8648933
115	0x3f2d518c	0.67702556
116	0x3e7624b0	0.24037433
117	0xbfdaa519	-1.7081634
118	0xbed5cb1e	-0.4175653
119	0xbdb904dc	-0.0903413
120	0xbf78cbed	-0.97186166
121	0x3deabf85	0.11462311
122	0xbf8319fb	-1.0242304
123	0x3e8dc967	0.2769272
124	0x3fba2e03	1.4545292
125	0xbf21f3c8	-0.63262606
126	0x3fdeb4ef	1.7398967
127	0x3f99cc1c	1.2015414
128	0x3fd6baf8	1.6775808
129	0xc024c259	-2.574362
130	0x3d65c402	0.05609513
131	0xbe92a56b	-0.2864183
132	0x3dfa211f	0.122133486
133	0x3ebcafe0	0.36852932
134	0xbeeac45f	-0.45852944
135	0xbf1623ef	-0.5864858
136	0x3f5fd1be	0.87429416
137	0x3f4097e7	0.75231785
138	0x3eead658	0.45866656
139	0x3f016f57	0.50560516
140	0xbec20227	-0.37892267
141	0x3d92ec02	0.07173921
142	0x3f4775f6	0.7791437
143	0xbe2f0cf9	-0.17094792
144	0xbe7efbac	-0.24900693
145	0xbd8cc6de	-0.068738684
146	0x3f879148	1.0591211
147	0x3dadc34c	0.084845155
148	0xbeb3c602	-0.35112005
149	0xbf744be6	-0.9542831
150	0xbd85d21a	-0.06534214
151	0xbd6be148	-0.05758789
152	0x3e9380f8	0.28809333
153	0x3e0296c7	0.1275283
154	0xbf0ee87e	-0.55823505
155	0xbf010764	-0.504019
156	0xbfa5cce2	-1.295315
157	0xbf14b55a	-0.5808922
158	0x3f8cd806	1.1003425
159	0xbf4f5bda	-0.8099953
160	0xc0003354	-2.0031328
161	0x3eaa1159	0.3321636
162	0xbf7b217b	-0.9809796
163	0xbf9912e5	-1.1958891
164	0xbfef7156	-1.8706462
165	0x3f77f7f0	0.968627
166	0xbf22bcb6	-0.635692
167	0x3fdfd740	1.7487564
168	0x3cc2304e	0.023704674
169	0x3f07ed0e	0.5309609
170	0xbf77d659	-0.96811444
171	0xbebe61b1	-0.37183908
172	0xbfa03454	-1.2515969
173	0xbf9b79cd	-1.2146546
174	0xbe814247	-0.25245878
175	0x3e162b20	0.14664888
176	0x3ead8632	0.33891445
177	0x3f58716d	0.84548074
178	0x3f219160	0.6311245
179	0xbf288c67	-0.65839237
180	0x3fc17f54	1.5116982
181	0xbebae2dc	-0.36501205
182	0xbf88e310	-1.0694294
183	0x3faa4cbe	1.330467
184	0xbe16547e	-0.14680669
185	0xbf718309	-0.9434057
186	0x3ed9693c	0.424631
187	0xbeb380d0	-0.35059214
188	0x3e04b2d0	0.12958837
189	0xbd0ba0d6	-0.034088932
190	0xbf120a1c	-0.57046676
191	0xbfb2fe00	-1.3983765
192	0x3f5f5057	0.87231964
193	0x3fa5122f	1.2896174
194	0xbf283ae1	-0.6571484
195	0x3fa8acd8	1.3177748
196	0x3f6c41ee	0.922881
197	0xbe5390bb	-0.20660679
198	0xbf6d4690	-0.92685795
199	0x3cbcec70	0.023061961
200	0x3ee1fbff	0.4413757
201	0x3f9d092e	1.2268426
202	0xbfdaca3e	-1.709297
203	0xbfb14417	-1.3848904
204	0xbf4469c5	-0.7672389
205	0xbe1523cf	-0.14564441
206	0xbeed0600	-0.4629364
207	0x4019d210	2.4034462
208	0xbfa4605a	-1.2841904
209	0x3ea4a123	0.32154188
210	0x3fd43648	1.6579065
211	0xbfa87f69	-1.3163882
212	0xbe8c630b	-0.27419314
213	0xbfcf7dcd	-1.6210266
214	0x3ee01af7	0.43770573
215	0xbfb31c26	-1.3992965
216	0x3e94332d	0.28945294
217	0xbec67f2b	-0.38768896
218	0x3f9d2035	1.2275454
219	0x3e935037	0.28772137
220	0xbf45a9af	-0.7721204
221	0xbf9b663b	-1.2140573
222	0x3eb36b7e	0.35042948
223	0x3c760944	0.015016858
224	0x400eb18b	2.2295864
225	0xbf8e241f	-1.1104773
226	0x3d0ef174	0.034898236
227	0x3eec09a7	0.46101114
228	0x3eda1d82	0.42600638
229	0x400503c8	2.0783558
230	0xbf50e75a	-0.81603014
231	0xbf4e42c2	-0.80570614
232	0xbfbbec4a	-1.4681485
233	0x3e157240	0.14594364
234	0x3ef3b733	0.47600707
235	0xbf5d542a	-0.8645655
236	0x3f1a5349	0.60283333
237	0x3fa2fab0	1.2732754
238	0xbf5ade9f	-0.8549594
239	0xbf0e26e8	-0.55528116
240	0x3ee060f8	0.4382398
241	0x3f2948c9	0.66126686
242	0xbed761c3	-0.42066774
243	0xbf892343	-1.0713886
244	0xbf487025	-0.7829612
245	0x3f13ebad	0.5778149
246	0xc037e3cf	-2.8732793
247	0xbfbb2f4a	-1.4623806
248	0xbf008da3	-0.5021612
249	0x3f20b376	0.62773836
250	0x3f6f1eb9	0.93406254
251	0x3f125055	0.57153827
252	0xbf0f327b	-0.559364
253	0xbd5f5b79	-0.054530594
254	0xbed67b0b	-0.4189075
255	0xbed0e783	-0.4080163

cat_embeds.6.weight f4 [12, 32]
0	0x00000000	0.0
1	0x00000000	0.0
2	0x00000000	0.0
3	0x00000000	0.0
4	0x00000000	0.0
5	0x00000000	0.0
6	0x00000000	0.0
7	0x00000000	0.0
8	0x00000000	0.0
9	0x00000000	0.0
10	0x00000000	0.0
11	0x00000000	0.0
12	0x00000000	0.0
13	0x00000000	0.0
14	0x00000000	0.0
15	0x00000000	0.0
16	0x00000000	0.0
17	0x00000000	0.0
18	0x00000000	0.0
19	0x00000000	0.0
20	0x00000000	0.0
21	0x00000000	0.0
22	0x00000000	0.0
23	0x00000000	0.0
24	0x00000000	0.0
25	0x00000000	0.0
26	0x00000000	0.0
27	0x00000000	0.0
28	0x00000000	0.0
29	0x00000000	0.0
30	0x00000000	0.0
31	0x00000000	0.0
32	0xbf18303f	-0.5944862
33	0x3f6977f6	0.9119867
34	0x3f92b5b0	1.1461697
35	0x3ed6f13c	0.41980922
36	0x3f51b937	0.8192324
37	0xbf12020f	-0.5703439
38	0x3ec0f8a2	0.37689692
39	0xbfb18b4e	-1.3870637
40	0x3f49676d	0.7867344
41	0xbf8c6af8	-1.0970144
42	0xbed87e0a	-0.4228366
43	0x3fa4f6db	1.2887834
44	0x3e5f6a06	0.21817788
45	0x3e2afd8e	0.16698286
46	0x3cf440a9	0.029815989
47	0xbf81d30c	-1.0142531
48	0x3e6f41c6	0.23364934
49	0x3d8a7c19	0.06761951
50	0x3fe968f7	1.8235158
51	0xbfb83523	-1.4391216
52	0xbebc4394	-0.36770308
53	0x3fc53665	1.5407225
54	0x3eec1a3c	0.46113765
55	0x3ece3e05	0.40281692
56	0x3fbdde77	1.4833516
57	0xbee978c8	-0.4559996
58	0x40048ba1	2.0710223
59	0x3f62f58f	0.8865594
60	0x3e4b8b96	0.19877467
61	0x3f90f64b	1.1325163
62	0xbf9e3649	-1.2360317
63	0xbe9955bb	-0.2994822
64	0x3f90ba9d	1.130695
65	0x3f51d288	0.8196187
66	0x3e091cfb	0.13389961
67	0x401a3d9e	2.4100108
68	0x3fae5424	1.3619428
69	0x3d1972c0	0.03746295
70	0x3fd50206	1.6641243
71	0xbf9e66c1	-1.2375108
72	0x3dfdcdeb	0.12392791
73	0xbf405e75	-0.7514413
74	0xbe3dce8c	-0.18535823
75	0xbf639dcc	-0.88912654
76	0xbe21d227	-0.15802823
77	0xbfcb7ecb	-1.5898069
78	0x3f403341	0.7507821
79	0x3ea3eb84	0.32015622
80	0xbee0bbd5	-0.43893304
81	0x3f4672fb	0.77519196
82	0xbf445572	-0.7669288
83	0xbdf88137	-0.12134021
84	0xbf35ff73	-0.7109291
85	0x3ee1c0c5	0.44092384
86	0x3de5fbf7	0.11229699
87	0x3e81dd85	0.25364318
88	0x3ee72df3	0.45152244
89	0x3f4f2327	0.80913013
90	0x3f3e3e68	0.74313974
91	0xbfb04182	-1.3769991
92	0x3df2b8ff	0.118516915
93	0x3f855b89	1.0418559
94	0x3f829aa5	1.0203444
95	0xbfae02a4	-1.3594556
96	0x3f7c77e4	0.9862044
97	0x3f4e082b	0.80481213
98	0xbf2c6af8	-0.6735072
99	0x3fe46fb2	1.7846587
100	0x3e820fe5	0.25402752
101	0xbf3a7b1d	-0.72844106
102	0xc01d6011	-2.4589884
103	0xbfe54175	-1.7910601
104	0x3f627c01	0.88470465
105	0xbf722aad	-0.9459637
106	0xbe8344e3	-0.25638494
107	0xbf23a1c3	-0.63918704
108	0x3ff6f42d	1.9293267
109	0xbfa682ec	-1.3008704
110	0xbe25615c	-0.16150421
111	0x400512e6	2.0792785
112	0xbfc8646f	-1.565565
113	0x3d92a09e	0.071595415
114	0x3f17b9aa	0.59267676
115	0x3e810622	0.2519999
116	0xbdc5fb65	-0.0966709
117	0x3f89985a	1.0749619
118	0x3f5d249c	0.86383986
119	0xbf59860c	-0.84970164
120	0xbf5eb6a6	-0.8699745
121	0x3fc2c378	1.5215902
122	0xbf64885e	-0.8927058
123	0xbf20feb7	-0.62888664
124	0xbefdf6a1	-0.49602225
125	0x3ee16bcb	0.44027552
126	0xbfc79331	-1.5591794
127	0x3e017f2b	0.12646167
128	0x3fe031f1	1.7515241
129	0x3f88b966	1.0681579
130	0xbfd69e7c	-1.6767116
131	0x40262839	2.596205
132	0xc00a640c	-2.1623564
133	0x3f9e2bed	1.2357155
134	0x3f9cb8c7	1.224389
135	0x3efa52e3	0.48891363
136	0xbf11715c	-0.568136
137	0x3f8ce067	1.1005982
138	0x3f9fcc39	1.2484199
139	0xbf9ae3ab	-1.2100729
140	0xbf17be51	-0.59274775
141	0x3eeb76b5	0.45989004
142	0xbe0c31e4	-0.13690907
143	0x3fb20b4e	1.39097
144	0xbf9f1200	-1.2427368
145	0x3f367010	0.71264744
146	0xbf353bbe	-0.70794284
147	0xbee694ac	-0.45035303
148	0x3e7ec989	0.24881567
149	0x3e99caf3	0.3003765
150	0xbf4eca6e	-0.80777633
151	0xbf1cd2e9	-0.61259323
152	0xbe6c0933	-0.23050384
153	0x3df528eb	0.11970695
154	0xbe230fb9	-0.15923966
155	0xbf08311a	-0.53199923
156	0x3fabe4de	1.342922
157	0x401f7867	2.4917238
158	0x3f0bb442	0.54571927
159	0x3ef22be5	0.47299114
160	0x3f4123af	0.75445074
161	0xbf2ebcd5	-0.68256885
162	0x3f2ab0da	0.66676104
163	0x3ee1aeee	0.44078773
164	0xbe2b97a2	-0.16757062
165	0xbe8f4e11	-0.27989247
166	0xbf048793	-0.5176937
167	0xbea2c14e	-0.31788105
168	0x3f1cb89d	0.612192
169	0xbf381570	-0.7190771
170	0x40098fc0	2.1493988
171	0x3fc44290	1.5332813
172	0x3eb9ec1a	0.36312944
173	0x40059be7	2.0876405
174	0xbf5daf6d	-0.86595803
175	0xbf310d67	-0.69161075
176	0xbea78891	-0.3272138
177	0x3f0217d7	0.50817627
178	0xbecc0eb2	-0.39854962
179	0x3f9b118d	1.2114731
180	0xbfade098	-1.3584166
181	0xbe5effdb	-0.21777289
182	0xbe8f8df3	-0.28037986
183	0x3fe4e533	1.7882446
184	0x3ea1c832	0.3159805
185	0x3fab7245	1.3394247
186	0xbf06dfd4	-0.52685285
187	0xbf87acae	-1.0599573
188	0x3fd9a5d7	1.7003735
189	0xbf2cd9c9	-0.67519814
190	0x3f881805	1.063233
191	0x3eb5a656	0.35478467
192	0xbfb02941	-1.376259
193	0xbfd46a45	-1.6594931
194	0xbf8797f0	-1.0593243
195	0x3e906f7b	0.28210053
196	0xbefec231	-0.4975753
197	0xbfdbe168	-1.7178164
198	0x3f7d8a99	0.9903961
199	0xbf5a1ecd	-0.8520325
200	0xbf2b13d6	-0.6682714
201	0x3e9be1bb	0.30445656
202	0x3e4fd28d	0.20295162
203	0x3f81d4ec	1.0143104
204	0x3f8d6370	1.1045971
205	0xbf4c57ad	-0.7982128
206	0xbf1713e9	-0.59014755
207	0xbe924d92	-0.28574806
208	0xbfb29c83	-1.3954014
209	0x3f000d36	0.5002016
210	0x3f0ff7fb	0.56237763
211	0x3ff99416	1.9498317
212	0x3fa4587b	1.2839502
213	0x3d48d3c9	0.0490301
214	0x3f71a5dd	0.9439371
215	0xbf83f92e	-1.0310419
216	0xbf47e1f9	-0.7807918
217	0xbf24aefb	-0.643295
218	0xbf11c060	-0.56934166
219	0xbf271487	-0.652657
220	0x3fff63bf	1.9952315
221	0x3ef1a06b	0.47192702
222	0xbf2ab9b0	-0.66689587
223	0xbf7c2afd	-0.98503095
224	0x3eaa9519	0.33316877
225	0xbfff2ac5	-1.9934927
226	0xbf2a5927	-0.66542286
227	0x3e9c359b	0.30509648
228	0xbf8438bb	-1.0329813
229	0x3f8122e4	1.0088773
230	0x3eae0d6c	0.33994615
231	0xbffb7094	-1.9643731
232	0x3e49ffe1	0.19726516
233	0x3d953b68	0.072867215
234	0xbf762373	-0.9614784
235	0x3e1cc575	0.15309699
236	0xbec5cff4	-0.38635218
237	0x3fd29f0e	1.645479
238	0x3f3b2a14	0.7311108
239	0x3ea9b1d5	0.33143488
240	0xbfa7a679	-1.3097678
241	0x3f71e541	0.9449044
242	0xbf8f7aad	-1.1209313
243	0x3eaa9949	0.33320072
244	0xbdd037d6	-0.101669
245	0x3ebb414a	0.3657325
246	0x3e970e50	0.29503107
247	0x3fc1fe4e	1.5155733
248	0xbda0a641	-0.078442104
249	0x3f3d2c70	0.7389593
250	0x3ef54242	0.47902113
251	0xbeb6d5a2	-0.35709864
252	0x3f3da951	0.7408648
253	0xbeb61ac3	-0.35567293
254	0xbf3cbe84	-0.73728204
255	0xbf91f138	-1.1401739

cat_embeds.7.weight f4 [21, 32]
0	0x00000000	0.0
1	0x00000000	0.0
2	0x00000000	0.0
3	0x00000000	0.0
4	0x00000000	0.0
5	0x00000000	0.0
6	0x00000000	0.0
7	0x00000000	0.0
8	0x00000000	0.0
9	0x00000000	0.0
10	0x00000000	0.0
11	0x00000000	0.0
12	0x00000000	0.0
13	0x00000000	0.0
14	0x00000000	0.0
15	0x00000000	0.0
16	0x00000000	0.0
17	0x00000000	0.0
18	0x00000000	0.0
19	0x00000000	0.0
20	0x00000000	0.0
21	0x00000000	0.0
22	0x00000000	0.0
23	0x00000000	0.0
24	0x00000000	0.0
25	0x00000000	0.0
26	0x00000000	0.0
27	0x00000000	0.0
28	0x00000000	0.0
29	0x00000000	0.0
30	0x00000000	0.0
31	0x00000000	0.0
32	0xbf61d16f	-0.88210195
33	0xbc19b31d	-0.009381083
34	0x3f46571d	0.77476674
35	0x3ff81926	1.9382675
36	0xbe3233f5	-0.17402633
37	0xbf87398d	-1.0564438
38	0x3f191bee	0.5980824
39	0x3f42644c	0.7593429
40	0x3fbd36e8	1.4782381
41	0xbf8466e6	-1.0343902
42	0x3fd35b42	1.6512225
43	0xbd3bce37	-0.04585096
44	0xbf5677f5	-0.8377679
45	0xbfa52905	-1.2903143
46	0xbe99466c	-0.2993654
47	0xbfdc3884	-1.7204747
48	0x3fb47dd9	1.4100906
49	0x3ee78354	0.45217383
50	0xbe9b06de	-0.30278677
51	0xbf6c9b47	-0.92424434
52	0x3f8b7636	1.089545
53	0x3eeebf7c	0.46630466
54	0xbf4e5b69	-0.8060823
55	0x3fba5ce6	1.45596
56	0x3fa10e02	1.25824
57	0x3fea58a4	1.8308301
58	0x3f9c02ae	1.2188318
59	0x3dd824e2	0.1055391
60	0xbf8f1a01	-1.1179811
61	0x3e980729	0.29692963
62	0xbec0e05d	-0.37671176
63	0xbee73fb5	-0.45165792
64	0x3d8b9feb	0.06817611
65	0x3dee68b1	0.11641062
66	0x3e8dd01f	0.27697846
67	0xbfb11969	-1.383588
68	0x3eeea039	0.46606615
69	0x3f75cde6	0.960173
70	0x3f09a474	0.5376656
71	0xbf4595c8	-0.77181673
72	0xc014bcdb	-2.3240268
73	0xbeeeebdf	-0.4666433
74	0xbe547811	-0.20748927
75	0x3f4886bd	0.78330594
76	0xbe8376f7	-0.256767
77	0xbf980573	-1.1876663
78	0x3ecda3b7	0.40163967
79	0x3d29fa70	0.0414986
80	0x3fb067ac	1.3781638
81	0x3f45c72e	0.7725705
82	0xbeabcd5e	-0.3355512
83	0x3fabed75	1.3431841
84	0x3f4f214c	0.8091018
85	0xbe5a59a1	-0.21323253
86	0xbef15c0e	-0.47140545
87	0xbf11c491	-0.5694056
88	0x3f90d3f6	1.1314685
89	0xbfa188e9	-1.2619907
90	0x3f9991bf	1.1997603
91	0xbf635571	-0.8880225
92	0xbe0d6239	-0.13807
93	0x3fc7c3f1	1.5606672
94	0x3f8ed6ae	1.1159265
95	0xbe13c73d	-0.14431472
96	0x3eb7856e	0.35843986
97	0xbe9adce9	-0.30246666
98	0x3f45b762	0.77232945
99	0xbf0f05b3	-0.5586807
100	0x3f1954f1	0.59895235
101	0xbd130e0a	-0.03590206
102	0xbfb9d412	-1.4517844
103	0xbf047867	-0.5174622
104	0xbf5e598a	-0.86855376
105	0x3fa22330	1.2666988
106	0x3edfdde2	0.4372397
107	0xbf9fd369	-1.2486392
108	0xbfc03e5c	-1.501903
109	0xbe2a6e6f	-0.1664369
110	0xbf1e6b9e	-0.6188296
111	0xbe9cc59f	-0.30619523
112	0x3f148d17	0.58027786
113	0xbf22d181	-0.6360093
114	0xbd3f7e1b	-0.046751123
115	0x3f1f83f9	0.6231075
116	0xbf41867b	-0.75595826
117	0xbe128fb9	-0.14312638
118	0x3f7ef843	0.9959757
119	0xbecdd923	-0.40204725
120	0x3efd65f9	0.4949186
121	0xbd0f55ec	-0.03499405
122	0xbec6dd39	-0.38840654
123	0xbe81eb14	-0.25374663
124	0xbff0078e	-1.8752306
125	0x3f1edd40	0.6205635
126	0x3fa6bec1	1.3026963
127	0x3f9c80f2	1.2226851
128	0xbe9625b1	-0.2932563
129	0xbf33fc8b	-0.70307225
130	0x3ed5d305	0.41762558
131	0x3f163dde	0.5868815
132	0x3f801438	1.000617
133	0xbf7402ab	-0.9531657
134	0xbf5f842c	-0.87311053
135	0xbf11b540	-0.5691719
136	0x3f28d6a3	0.6595251
137	0x3f0088a9	0.50208527
138	0xbec6bce3	-0.38815984
139	0xbead9620	-0.339036
140	0xbf1f971f	-0.6233997
141	0xc03acd88	-2.9187946
142	0xbb40e254	-0.0029431777
143	0xbf2abb98	-0.66692495
144	0xbfa8cd90	-1.3187733
145	0xbf70fba5	-0.9413398
146	0xbd881563	-0.06644704
147	0xbebb2e20	-0.36558628
148	0x3fa9874e	1.3244417
149	0xbdef52ff	-0.11685752
150	0x3eb4e04a	0.3532737
151	0x3ef551f6	0.47914094
152	0x3f8296cb	1.0202268
153	0x3ef8680f	0.4851689
154	0xbe96c5ed	-0.2944788
155	0x3fc9ad8a	1.5756085
156	0xbea7c83a	-0.32769948
157	0x3f4f0fff	0.80883783
158	0xbe191abf	-0.14951609
159	0x3efd404e	0.49463123
160	0x3eaa01ba	0.33204442
161	0xbee8ce87	-0.45470068
162	0x3ff8fd8d	1.9452378
163	0x3f1b9423	0.60772914
164	0xbed1b9ee	-0.40962166
165	0x3e7c902f	0.24664377
166	0xbf7f3eb2	-0.9970504
167	0xbf348a88	-0.7052388
168	0x3c8fc72b	0.017551025
169	0xbe8914f9	-0.26773813
170	0x3fad097a	1.3518517
171	0xbeb77351	-0.35830167
172	0xbf9a3215	-1.2046534
173	0xbfaff424	-1.3746381
174	0xbe31e9ef	-0.17374395
175	0x3e8c30c0	0.27380943
176	0x3fc3b2eb	1.5288976
177	0x3ff069a7	1.8782243
178	0x3f0fcca2	0.5617162
179	0xbf6ef1b3	-0.93337554
180	0xbc2820a7	-0.010261691
181	0xbea993d0	-0.33120584
182	0xbf97d020	-1.186039
183	0x40069a6d	2.1031754
184	0x3f8a987d	1.0827786
185	0xbf3bb2b0	-0.7331953
186	0xbfafd153	-1.3735756
187	0xbedcf59e	-0.4315614
188	0xbe43f223	-0.19135337
189	0x3f2e02d3	0.6797306
190	0x3ee3812b	0.44434485
191	0x3dbe4165	0.09289817
192	0x3f0802e3	0.53129405
193	0x3f1f1a12	0.62149155
194	0xbf98423f	-1.1895217
195	0x40150e97	2.3290155
196	0x3fa03521	1.2516214
197	0x3f877cfd	1.0585018
198	0xbf4809cf	-0.78139967
199	0x3e48df2c	0.19616383
200	0xbec185d0	-0.37797403
201	0xbf75ea79	-0.960609
202	0x3f3a7185	0.7282947
203	0xbfdb0bf4	-1.7113023
204	0xbf5a9648	-0.8538556
205	0xbf510851	-0.81653315
206	0x3f7bced0	0.98362446
207	0xbefba1f4	-0.49146998
208	0xc007219c	-2.1114264
209	0xbf2138b2	-0.62977135
210	0xbf041089	-0.5158773
211	0xbf01f8da	-0.5077034
212	0x3f77f893	0.9686367
213	0x3e5b988a	0.21444908
214	0x3f253edd	0.64549047
215	0xbf8819ff	-1.0632933
216	0x4011d813	2.2788131
217	0x3f57af8e	0.8425225
218	0x3dde5823	0.108566545
219	0x3f91f38f	1.1402453
220	0xbf26a15c	-0.65089965
221	0xbf5c96b6	-0.86167467
222	0x3fdb5a70	1.7136974
223	0x3e35c51a	0.1775097
224	0xbef986ce	-0.4873566
225	0x3f54cafa	0.8312222
226	0xbfa0f64e	-1.2575166
227	0xc00bc7d9	-2.1840727
228	0xbe98f6ec	-0.29875886
229	0x3ee61f03	0.44945535
230	0x3ec378eb	0.3817819
231	0xbdd82cdd	-0.10555432
232	0x3f425406	0.7590946
233	0x40239db7	2.5565012
234	0x3eb46f1b	0.35241017
235	0x3f41745e	0.7556819
236	0x3f1a056c	0.60164523
237	0xbf23a78d	-0.6392754
238	0x3f87bcf3	1.0604538
239	0x3fb14d03	1.3851627
240	0x3eec68e6	0.4617378
241	0x3e9d9925	0.30780903
242	0x3f9e271f	1.2355689
243	0xbd34af8c	-0.044112727
244	0x3e71915c	0.23590606
245	0xbf8034d3	-1.0016121
246	0xbf1a9aef	-0.6039266
247	0xbf8315c8	-1.0241022
248	0x3f37ef77	0.7184977
249	0xbf8d6c1a	-1.1048615
250	0xbf7aea78	-0.9801402
251	0xbf1a85ee	-0.6036061
252	0xbf854904	-1.0412908
253	0xbec62569	-0.38700417
254	0xbf42a71d	-0.76036245
255	0xbfbcbd7c	-1.4745326
